…
weight: /home/jared/New Volume/s30_1w5s-20250405T163209Z-001/s30_1w5s/model_best.pth
weight_decay: 0.01
window_size: [0.16, 0.32, 0.64, 1.28]
workers: 16
world_size: 1
[32m[04/22 19:39:22 main-logger]: [0m=> creating model ...
[32m[04/22 19:39:22 main-logger]: [0mCOSeg(
  (criterion): CrossEntropyLoss()
  (criterion_base): CrossEntropyLoss()
  (encoder): Stratified(
    (stem_layer): ModuleList(
      (0): KPConvSimpleBlock(
        (kpconv): KPConvLayer(InF: 6, OutF: 48, kernel_pts: 15, radius: 0.06, KP_influence: linear, Add_one: False)
        (bn): FastBatchNorm1d(
          (batch_norm): BatchNorm1d(48, eps=1e-05, momentum=0.02, affine=True, track_running_stats=True)
        )
        (activation): LeakyReLU(negative_slope=0.2)
      )
    )
    (layers): ModuleList(
      (0): BasicLayer(
        (blocks): ModuleList(
          (0): SwinTransformerBlock(
            (norm1): LayerNorm((48,), eps=1e-05, elementwise_affine=True)
            (attn): WindowAttention(
              (qkv): Linear(in_features=48, out_features=144, bias=True)
              (attn_drop): Dropout(p=0.0, inplace=True)
              (proj): Linear(in_features=48, out_features=48, bias=True)
              (proj_drop): Dropout(p=0.0, inplace=True)
              (softmax): Softmax(dim=-1)
            )
            (drop_path): Identity()
            (norm2): LayerNorm((48,), eps=1e-05, elementwise_affine=True)
            (mlp): Mlp(
              (fc1): Linear(in_features=48, out_features=192, bias=True)
              (act): GELU()
              (fc2): Linear(in_features=192, out_features=48, bias=True)
              (drop): Dropout(p=0.0, inplace=True)
            )
          )
          (1): SwinTransformerBlock(
            (norm1): LayerNorm((48,), eps=1e-05, elementwise_affine=True)
            (attn): WindowAttention(
              (qkv): Linear(in_features=48, out_features=144, bias=True)
              (attn_drop): Dropout(p=0.0, inplace=True)
              (proj): Linear(in_features=48, out_features=48, bias=True)
              (proj_drop): Dropout(p=0.0, inplace=True)
              (softmax): Softmax(dim=-1)
            )
            (drop_path): DropPath(drop_prob=0.027)
            (norm2): LayerNorm((48,), eps=1e-05, elementwise_affine=True)
            (mlp): Mlp(
              (fc1): Linear(in_features=48, out_features=192, bias=True)
              (act): GELU()
              (fc2): Linear(in_features=192, out_features=48, bias=True)
              (drop): Dropout(p=0.0, inplace=True)
            )
          )
        )
        (downsample): TransitionDown(
          (norm): LayerNorm((48,), eps=1e-05, elementwise_affine=True)
          (linear): Linear(in_features=48, out_features=96, bias=False)
          (pool): MaxPool1d(kernel_size=16, stride=16, padding=0, dilation=1, ceil_mode=False)
        )
      )
      (1): BasicLayer(
        (blocks): ModuleList(
          (0): SwinTransformerBlock(
            (norm1): LayerNorm((96,), eps=1e-05, elementwise_affine=True)
            (attn): WindowAttention(
              (qkv): Linear(in_features=96, out_features=288, bias=True)
              (attn_drop): Dropout(p=0.0, inplace=True)
              (proj): Linear(in_features=96, out_features=96, bias=True)
              (proj_drop): Dropout(p=0.0, inplace=True)
              (softmax): Softmax(dim=-1)
            )
            (drop_path): DropPath(drop_prob=0.055)
            (norm2): LayerNorm((96,), eps=1e-05, elementwise_affine=True)
            (mlp): Mlp(
              (fc1): Linear(in_features=96, out_features=384, bias=True)
              (act): GELU()
              (fc2): Linear(in_features=384, out_features=96, bias=True)
              (drop): Dropout(p=0.0, inplace=True)
            )
          )
          (1): SwinTransformerBlock(
            (norm1): LayerNorm((96,), eps=1e-05, elementwise_affine=True)
            (attn): WindowAttention(
              (qkv): Linear(in_features=96, out_features=288, bias=True)
              (attn_drop): Dropout(p=0.0, inplace=True)
              (proj): Linear(in_features=96, out_features=96, bias=True)
              (proj_drop): Dropout(p=0.0, inplace=True)
              (softmax): Softmax(dim=-1)
            )
            (drop_path): DropPath(drop_prob=0.082)
            (norm2): LayerNorm((96,), eps=1e-05, elementwise_affine=True)
            (mlp): Mlp(
              (fc1): Linear(in_features=96, out_features=384, bias=True)
              (act): GELU()
              (fc2): Linear(in_features=384, out_features=96, bias=True)
              (drop): Dropout(p=0.0, inplace=True)
            )
          )
        )
        (downsample): TransitionDown(
          (norm): LayerNorm((96,), eps=1e-05, elementwise_affine=True)
          (linear): Linear(in_features=96, out_features=192, bias=False)
          (pool): MaxPool1d(kernel_size=16, stride=16, padding=0, dilation=1, ceil_mode=False)
        )
      )
      (2): BasicLayer(
        (blocks): ModuleList(
          (0): SwinTransformerBlock(
            (norm1): LayerNorm((192,), eps=1e-05, elementwise_affine=True)
            (attn): WindowAttention(
              (qkv): Linear(in_features=192, out_features=576, bias=True)
              (attn_drop): Dropout(p=0.0, inplace=True)
              (proj): Linear(in_features=192, out_features=192, bias=True)
              (proj_drop): Dropout(p=0.0, inplace=True)
              (softmax): Softmax(dim=-1)
            )
            (drop_path): DropPath(drop_prob=0.109)
            (norm2): LayerNorm((192,), eps=1e-05, elementwise_affine=True)
            (mlp): Mlp(
              (fc1): Linear(in_features=192, out_features=768, bias=True)
              (act): GELU()
              (fc2): Linear(in_features=768, out_features=192, bias=True)
              (drop): Dropout(p=0.0, inplace=True)
            )
          )
          (1): SwinTransformerBlock(
            (norm1): LayerNorm((192,), eps=1e-05, elementwise_affine=True)
            (attn): WindowAttention(
              (qkv): Linear(in_features=192, out_features=576, bias=True)
              (attn_drop): Dropout(p=0.0, inplace=True)
              (proj): Linear(in_features=192, out_features=192, bias=True)
              (proj_drop): Dropout(p=0.0, inplace=True)
              (softmax): Softmax(dim=-1)
            )
            (drop_path): DropPath(drop_prob=0.136)
            (norm2): LayerNorm((192,), eps=1e-05, elementwise_affine=True)
            (mlp): Mlp(
              (fc1): Linear(in_features=192, out_features=768, bias=True)
              (act): GELU()
              (fc2): Linear(in_features=768, out_features=192, bias=True)
              (drop): Dropout(p=0.0, inplace=True)
            )
          )
          (2): SwinTransformerBlock(
            (norm1): LayerNorm((192,), eps=1e-05, elementwise_affine=True)
            (attn): WindowAttention(
              (qkv): Linear(in_features=192, out_features=576, bias=True)
              (attn_drop): Dropout(p=0.0, inplace=True)
              (proj): Linear(in_features=192, out_features=192, bias=True)
              (proj_drop): Dropout(p=0.0, inplace=True)
              (softmax): Softmax(dim=-1)
            )
            (drop_path): DropPath(drop_prob=0.164)
            (norm2): LayerNorm((192,), eps=1e-05, elementwise_affine=True)
            (mlp): Mlp(
              (fc1): Linear(in_features=192, out_features=768, bias=True)
              (act): GELU()
              (fc2): Linear(in_features=768, out_features=192, bias=True)
              (drop): Dropout(p=0.0, inplace=True)
            )
          )
          (3): SwinTransformerBlock(
            (norm1): LayerNorm((192,), eps=1e-05, elementwise_affine=True)
            (attn): WindowAttention(
              (qkv): Linear(in_features=192, out_features=576, bias=True)
              (attn_drop): Dropout(p=0.0, inplace=True)
              (proj): Linear(in_features=192, out_features=192, bias=True)
              (proj_drop): Dropout(p=0.0, inplace=True)
              (softmax): Softmax(dim=-1)
            )
            (drop_path): DropPath(drop_prob=0.191)
            (norm2): LayerNorm((192,), eps=1e-05, elementwise_affine=True)
            (mlp): Mlp(
              (fc1): Linear(in_features=192, out_features=768, bias=True)
              (act): GELU()
              (fc2): Linear(in_features=768, out_features=192, bias=True)
              (drop): Dropout(p=0.0, inplace=True)
            )
          )
          (4): SwinTransformerBlock(
            (norm1): LayerNorm((192,), eps=1e-05, elementwise_affine=True)
            (attn): WindowAttention(
              (qkv): Linear(in_features=192, out_features=576, bias=True)
              (attn_drop): Dropout(p=0.0, inplace=True)
              (proj): Linear(in_features=192, out_features=192, bias=True)
              (proj_drop): Dropout(p=0.0, inplace=True)
              (softmax): Softmax(dim=-1)
            )
            (drop_path): DropPath(drop_prob=0.218)
            (norm2): LayerNorm((192,), eps=1e-05, elementwise_affine=True)
            (mlp): Mlp(
              (fc1): Linear(in_features=192, out_features=768, bias=True)
              (act): GELU()
              (fc2): Linear(in_features=768, out_features=192, bias=True)
              (drop): Dropout(p=0.0, inplace=True)
            )
          )
          (5): SwinTransformerBlock(
            (norm1): LayerNorm((192,), eps=1e-05, elementwise_affine=True)
            (attn): WindowAttention(
              (qkv): Linear(in_features=192, out_features=576, bias=True)
              (attn_drop): Dropout(p=0.0, inplace=True)
              (proj): Linear(in_features=192, out_features=192, bias=True)
              (proj_drop): Dropout(p=0.0, inplace=True)
              (softmax): Softmax(dim=-1)
            )
            (drop_path): DropPath(drop_prob=0.245)
            (norm2): LayerNorm((192,), eps=1e-05, elementwise_affine=True)
            (mlp): Mlp(
              (fc1): Linear(in_features=192, out_features=768, bias=True)
              (act): GELU()
              (fc2): Linear(in_features=768, out_features=192, bias=True)
              (drop): Dropout(p=0.0, inplace=True)
            )
          )
        )
        (downsample): TransitionDown(
          (norm): LayerNorm((192,), eps=1e-05, elementwise_affine=True)
          (linear): Linear(in_features=192, out_features=384, bias=False)
          (pool): MaxPool1d(kernel_size=16, stride=16, padding=0, dilation=1, ceil_mode=False)
        )
      )
    )
    (classifier): Sequential(
      (0): Linear(in_features=192, out_features=192, bias=True)
      (1): BatchNorm1d(192, eps=1e-05, momentum=0.1, affine=True, track_running_stats=True)
      (2): ReLU(inplace=True)
      (3): Linear(in_features=192, out_features=3, bias=True)
    )
  )
  (lin1): Sequential(
    (0): Linear(in_features=100, out_features=192, bias=True)
    (1): ReLU(inplace=True)
  )
  (kpconv): KPConvResBlock(
    (unary_1): Sequential(
      (0): Linear(in_features=192, out_features=48, bias=False)
      (1): FastBatchNorm1d(
        (batch_norm): BatchNorm1d(48, eps=1e-05, momentum=0.02, affine=True, track_running_stats=True)
      )
      (2): LeakyReLU(negative_slope=0.2)
    )
    (unary_2): Sequential(
      (0): Linear(in_features=48, out_features=192, bias=False)
      (1): FastBatchNorm1d(
        (batch_norm): BatchNorm1d(192, eps=1e-05, momentum=0.02, affine=True, track_running_stats=True)
      )
      (2): LeakyReLU(negative_slope=0.2)
    )
    (kpconv): KPConvLayer(InF: 48, OutF: 48, kernel_pts: 15, radius: 0.12, KP_influence: linear, Add_one: False)
    (bn): FastBatchNorm1d(
      (batch_norm): BatchNorm1d(192, eps=1e-05, momentum=0.02, affine=True, track_running_stats=True)
    )
    (activation): LeakyReLU(negative_slope=0.2)
    (shortcut_op): Identity()
  )
  (cls): Sequential(
    (0): Linear(in_features=192, out_features=192, bias=True)
    (1): ReLU(inplace=True)
    (2): Dropout(p=0.1, inplace=False)
    (3): Linear(in_features=192, out_features=2, bias=True)
  )
  (bk_ffn): Sequential(
    (0): Linear(in_features=288, out_features=768, bias=True)
    (1): ReLU()
    (2): Dropout(p=0.1, inplace=False)
    (3): Linear(in_features=768, out_features=192, bias=True)
  )
  (agglayers): ModuleList(
    (0): AggregatorLayer(
      (spatial_attention): SpatialTransformerLayer(
        (attention): AttentionLayer(
          (q): Linear(in_features=192, out_features=192, bias=True)
          (k): Linear(in_features=192, out_features=192, bias=True)
          (v): Linear(in_features=192, out_features=192, bias=True)
          (attention): LinearAttention()
        )
        (MLP): Sequential(
          (0): Linear(in_features=192, out_features=768, bias=True)
          (1): ReLU()
          (2): Linear(in_features=768, out_features=192, bias=True)
        )
        (norm1): LayerNorm((192,), eps=1e-05, elementwise_affine=True)
        (norm2): LayerNorm((192,), eps=1e-05, elementwise_affine=True)
      )
      (class_attention): ClassTransformerLayer(
        (attention): AttentionLayer(
          (q): Linear(in_features=192, out_features=192, bias=True)
          (k): Linear(in_features=192, out_features=192, bias=True)
          (v): Linear(in_features=192, out_features=192, bias=True)
          (attention): LinearAttention()
        )
        (MLP): Sequential(
          (0): Linear(in_features=192, out_features=768, bias=True)
          (1): ReLU()
          (2): Linear(in_features=768, out_features=192, bias=True)
        )
        (norm1): LayerNorm((192,), eps=1e-05, elementwise_affine=True)
        (norm2): LayerNorm((192,), eps=1e-05, elementwise_affine=True)
        (norm_xbg): LayerNorm((2, 192), eps=1e-05, elementwise_affine=True)
        (base_merge): Conv1d(2, 1, kernel_size=(1,), stride=(1,), bias=False)
      )
    )
    (1): AggregatorLayer(
      (spatial_attention): SpatialTransformerLayer(
        (attention): AttentionLayer(
          (q): Linear(in_features=192, out_features=192, bias=True)
          (k): Linear(in_features=192, out_features=192, bias=True)
          (v): Linear(in_features=192, out_features=192, bias=True)
          (attention): LinearAttention()
        )
        (MLP): Sequential(
          (0): Linear(in_features=192, out_features=768, bias=True)
          (1): ReLU()
          (2): Linear(in_features=768, out_features=192, bias=True)
        )
        (norm1): LayerNorm((192,), eps=1e-05, elementwise_affine=True)
        (norm2): LayerNorm((192,), eps=1e-05, elementwise_affine=True)
      )
      (class_attention): ClassTransformerLayer(
        (attention): AttentionLayer(
          (q): Linear(in_features=192, out_features=192, bias=True)
          (k): Linear(in_features=192, out_features=192, bias=True)
          (v): Linear(in_features=192, out_features=192, bias=True)
          (attention): LinearAttention()
        )
        (MLP): Sequential(
          (0): Linear(in_features=192, out_features=768, bias=True)
          (1): ReLU()
          (2): Linear(in_features=768, out_features=192, bias=True)
        )
        (norm1): LayerNorm((192,), eps=1e-05, elementwise_affine=True)
        (norm2): LayerNorm((192,), eps=1e-05, elementwise_affine=True)
        (norm_xbg): LayerNorm((2, 192), eps=1e-05, elementwise_affine=True)
        (base_merge): Conv1d(2, 1, kernel_size=(1,), stride=(1,), bias=False)
      )
    )
    (2): AggregatorLayer(
      (spatial_attention): SpatialTransformerLayer(
        (attention): AttentionLayer(
          (q): Linear(in_features=192, out_features=192, bias=True)
          (k): Linear(in_features=192, out_features=192, bias=True)
          (v): Linear(in_features=192, out_features=192, bias=True)
          (attention): LinearAttention()
        )
        (MLP): Sequential(
          (0): Linear(in_features=192, out_features=768, bias=True)
          (1): ReLU()
          (2): Linear(in_features=768, out_features=192, bias=True)
        )
        (norm1): LayerNorm((192,), eps=1e-05, elementwise_affine=True)
        (norm2): LayerNorm((192,), eps=1e-05, elementwise_affine=True)
      )
      (class_attention): ClassTransformerLayer(
        (attention): AttentionLayer(
          (q): Linear(in_features=192, out_features=192, bias=True)
          (k): Linear(in_features=192, out_features=192, bias=True)
          (v): Linear(in_features=192, out_features=192, bias=True)
          (attention): LinearAttention()
        )
        (MLP): Sequential(
          (0): Linear(in_features=192, out_features=768, bias=True)
          (1): ReLU()
          (2): Linear(in_features=768, out_features=192, bias=True)
        )
        (norm1): LayerNorm((192,), eps=1e-05, elementwise_affine=True)
        (norm2): LayerNorm((192,), eps=1e-05, elementwise_affine=True)
        (norm_xbg): LayerNorm((2, 192), eps=1e-05, elementwise_affine=True)
        (base_merge): Conv1d(2, 1, kernel_size=(1,), stride=(1,), bias=False)
      )
    )
    (3): AggregatorLayer(
      (spatial_attention): SpatialTransformerLayer(
        (attention): AttentionLayer(
          (q): Linear(in_features=192, out_features=192, bias=True)
          (k): Linear(in_features=192, out_features=192, bias=True)
          (v): Linear(in_features=192, out_features=192, bias=True)
          (attention): LinearAttention()
        )
        (MLP): Sequential(
          (0): Linear(in_features=192, out_features=768, bias=True)
          (1): ReLU()
          (2): Linear(in_features=768, out_features=192, bias=True)
        )
        (norm1): LayerNorm((192,), eps=1e-05, elementwise_affine=True)
        (norm2): LayerNorm((192,), eps=1e-05, elementwise_affine=True)
      )
      (class_attention): ClassTransformerLayer(
        (attention): AttentionLayer(
          (q): Linear(in_features=192, out_features=192, bias=True)
          (k): Linear(in_features=192, out_features=192, bias=True)
          (v): Linear(in_features=192, out_features=192, bias=True)
          (attention): LinearAttention()
        )
        (MLP): Sequential(
          (0): Linear(in_features=192, out_features=768, bias=True)
          (1): ReLU()
          (2): Linear(in_features=768, out_features=192, bias=True)
        )
        (norm1): LayerNorm((192,), eps=1e-05, elementwise_affine=True)
        (norm2): LayerNorm((192,), eps=1e-05, elementwise_affine=True)
        (norm_xbg): LayerNorm((2, 192), eps=1e-05, elementwise_affine=True)
        (base_merge): Conv1d(2, 1, kernel_size=(1,), stride=(1,), bias=False)
      )
    )
  )
  (class_reduce): Sequential(
    (0): LayerNorm((192,), eps=1e-05, elementwise_affine=True)
    (1): Conv1d(2, 1, kernel_size=(1,), stride=(1,))
    (2): ReLU(inplace=True)
  )
  (bg_proto_reduce): MLPWithoutResidual(
    (fc1): Linear(in_features=100, out_features=400, bias=True)
    (fc2): Linear(in_features=400, out_features=100, bias=True)
    (relu): ReLU()
  )
)
[32m[04/22 19:39:22 main-logger]: [0m#Model parameters: 7745534
[32m[04/22 19:39:48 main-logger]: [0m=> no weight found at '/home/jared/New Volume/s30_1w5s-20250405T163209Z-001/s30_1w5s/model_best.pth'
{0: 'main_utility', 1: 'other_utility', 2: 'trench', 3: 'inactive_utility', 4: 'misc'}
Area_1_Site_3_part_1_block_14 | shape: (128971, 7) | classes: [0, 2]
…
